…
        "optimizer='adam',\n",
        "metrics=['accuracy']\n",
        ")\n",
        "model.summary()"
      ],
      "id": "9a8963b8",
      "execution_count": 15,
      "outputs": [
        {
          "output_type": "stream",
          "name": "stdout",
          "text": [
            "Model: \"sequential\"\n",
            "_________________________________________________________________\n",
            "Layer (type)                 Output Shape              Param #   \n",
            "=================================================================\n",
            "conv2d (Conv2D)              (None, 28, 48, 96)        11712     \n",
            "_________________________________________________________________\n",
            "activation (Activation)      (None, 28, 48, 96)        0         \n",
            "_________________________________________________________________\n",
            "max_pooling2d (MaxPooling2D) (None, 14, 24, 96)        0         \n",
            "_________________________________________________________________\n",
            "batch_normalization (BatchNo (None, 14, 24, 96)        384       \n",
            "_________________________________________________________________\n",
            "conv2d_1 (Conv2D)            (None, 14, 24, 256)       614656    \n",
            "_________________________________________________________________\n",
            "activation_1 (Activation)    (None, 14, 24, 256)       0         \n",
            "_________________________________________________________________\n",
            "max_pooling2d_1 (MaxPooling2 (None, 6, 11, 256)        0         \n",
            "_________________________________________________________________\n",
            "batch_normalization_1 (Batch (None, 6, 11, 256)        1024      \n",
            "_________________________________________________________________\n",
            "conv2d_2 (Conv2D)            (None, 6, 11, 384)        885120    \n",
            "_________________________________________________________________\n",
            "activation_2 (Activation)    (None, 6, 11, 384)        0         \n",
            "_________________________________________________________________\n",
            "batch_normalization_2 (Batch (None, 6, 11, 384)        1536      \n",
            "_________________________________________________________________\n",
            "conv2d_3 (Conv2D)            (None, 6, 11, 384)        1327488   \n",
            "_________________________________________________________________\n",
            "activation_3 (Activation)    (None, 6, 11, 384)        0         \n",
            "_________________________________________________________________\n",
            "batch_normalization_3 (Batch (None, 6, 11, 384)        1536      \n",
            "_________________________________________________________________\n",
            "conv2d_4 (Conv2D)            (None, 6, 11, 256)        884992    \n",
            "_________________________________________________________________\n",
            "activation_4 (Activation)    (None, 6, 11, 256)        0         \n",
            "_________________________________________________________________\n",
            "max_pooling2d_2 (MaxPooling2 (None, 2, 5, 256)         0         \n",
            "_________________________________________________________________\n",
            "batch_normalization_4 (Batch (None, 2, 5, 256)         1024      \n",
            "_________________________________________________________________\n",
            "flatten (Flatten)            (None, 2560)              0         \n",
            "_________________________________________________________________\n",
            "dense (Dense)                (None, 4096)              10489856  \n",
            "_________________________________________________________________\n",
            "activation_5 (Activation)    (None, 4096)              0         \n",
            "_________________________________________________________________\n",
            "dropout (Dropout)            (None, 4096)              0         \n",
            "_________________________________________________________________\n",
            "batch_normalization_5 (Batch (None, 4096)              16384     \n",
            "_________________________________________________________________\n",
            "dense_1 (Dense)              (None, 4096)              16781312  \n",
            "_________________________________________________________________\n",
            "activation_6 (Activation)    (None, 4096)              0         \n",
            "_________________________________________________________________\n",
            "dropout_1 (Dropout)          (None, 4096)              0         \n",
            "_________________________________________________________________\n",
            "batch_normalization_6 (Batch (None, 4096)              16384     \n",
            "_________________________________________________________________\n",
            "dense_2 (Dense)              (None, 6)                 24582     \n",
            "_________________________________________________________________\n",
            "activation_7 (Activation)    (None, 6)                 0         \n",
            "=================================================================\n",
            "Total params: 31,057,990\n",
            "Trainable params: 31,038,854\n",
            "Non-trainable params: 19,136\n",
            "_________________________________________________________________\n"
          ]
        }
      ]
    },
    {
      "cell_type": "code",
      "metadata": {
…
